Mydata/model/model_1.pkl (torch, 2383 bytes, 4 tensors)

weight f4 [5, 2]
00000000: 94e0 83bf 07d4 b63f 2f55 6ac0 d39a aebf
00000010: 405f 6fbf e03b a53f 31ff 36bf c6c5 743f
00000020: 2b37 4ebf b426 8c3f
-1.0302911 1.4283456 -3.6614492 -1.3640999 -0.93504715 1.2908897 -0.7148314 0.9561428
-0.8055293 1.0949311

bias f4 [5]
00000000: 51b7 db3e 6f79 0c3f 0c49 c53e ede7 903e
00000010: 593e a63e
0.42913297 0.5487279 0.38532293 0.28301945 0.32469442

weight f4 [2, 5]
00000000: f958 a93f 18fe 35c0 bb2d 993f 5b12 653f
00000010: ee70 823f 3537 a9bf 7ffd 3540 9c23 99bf
00000020: 4119 65bf e2a2 82bf
1.3230277 -2.8436337 1.1967081 0.89481133 1.0190713 -1.3219973 2.8435972 -1.1963992
-0.8949166 -1.0205958

bias f4 [2]
00000000: 0d22 23c0 9f21 2340
-2.5489533 2.548927
