Mydata/model/model_globle.pkl (torch, 2319 bytes, 4 tensors)

weight f4 [5, 2]
-1.0288047 1.4269838 -3.6606176 -1.3646274 -0.9335991 1.2895288 -0.713364 0.9547987
-0.80405295 1.0935915
00000000: dfaf 83bf 68a7 b63f 8f47 6ac0 1cac aebf
00000010: 5a00 6fbf 480f a53f 069f 36bf b06d 743f
00000020: 6ad6 4dbf cefa 8b3f

bias f4 [5]
0.42800876 0.5475445 0.3841794 0.2819575 0.32362288
00000000: f723 db3e e02b 0c3f 2ab3 c43e bc5c 903e
00000010: e6b1 a53e

weight f4 [2, 5]
1.3235682 -2.842675 1.1972536 0.8953881 1.0196307 -1.3225387 2.842639 -1.1969441
-0.8954934 -1.0211555
00000000: af6a a93f 63ee 35c0 9b3f 993f 2838 653f
00000010: 4283 823f f348 a9bf cced 3540 7735 99bf
00000020: 0e3f 65bf 39b5 82bf

bias f4 [2]
-2.550079 2.5500531
00000000: 7f34 23c0 1234 2340
