Mydata/model/model_0.pkl (torch, 2383 bytes, 4 tensors)

weight f4 [5, 2]
000000 fd 04 82 bf aa 17 c6 3f 1c 72 65 c0 10 f6 b8 bf
       -1.0157772 1.5475972 -3.5850897 -1.4450092
000010 d4 c1 6b bf 93 7c b4 3f 29 8f 33 bf 36 a0 89 3f
       -0.92092633 1.4100517 -0.7014032 1.0752017
000020 d3 b3 4a bf df 64 9b 3f
       -0.7918064 1.2140158

bias f4 [5]
000000 77 62 0e 3f 34 3d e8 3e 55 1e 03 3f 79 8c d1 3e
       0.55618995 0.45359194 0.5121816 0.40927485
000010 b0 06 e7 3e
       0.4512229

weight f4 [2, 5]
000000 60 8e b7 3f b0 dd 30 c0 65 64 a7 3f ab bb 80 3f
       1.4340324 -2.7635307 1.3077513 1.0057272
000010 73 a5 90 3f ad 6c b7 bf 1d dd 30 40 3f 5a a7 bf
       1.1300491 -1.433004 2.7634957 -1.3074416
000020 15 bf 80 bf 2f d7 90 bf
       -1.0058314 -1.1315669

bias f4 [2]
000000 b7 55 19 c0 4e 55 19 40
       -2.3958566 2.3958316
